cif_models/base.pt (torch, 2983 bytes, 1 tensors)

weight f4 [1, 512]
00000000: cfdd b9bc 6b5b f8bc b2b9 6abc a5ed 18bd
00000010: 0810 9639 c72d 473c 9dd9 8bbc 3692 b0bc
00000020: 7aee ff3c 226a 683c 8fb2 c2bb 4131 4abc
00000030: cf78 a8bc 6233 f13c 273f 26bc 4f8b ea3b
00000040: e8be afbc 02e6 22bd 1e93 8b3c a547 e5bc
00000050: 207f 6fbc bf73 0a3d 4394 cbbc 3288 a93c
00000060: c538 08bd 41b9 af3c 008e 7c3b d177 753c
00000070: bf3f 2ebd 3f0f ee3c 6ed5 e3bc 71f0 3bbd
00000080: 9515 443c ec10 2abd 7953 99bc 9bf8 66bc
00000090: 96f9 46bd 0a48 e63c dc7d 37bd bc64 683c
000000a0: 28a7 6c3c c3b7 8a3c 29f4 f9bb 17cf c4bc
000000b0: da0f 08bd 7e96 793c 79f0 d03b ea0a adbc
000000c0: 0948 17bc 89eb cb3c c9b0 ba3c cd02 d1bc
000000d0: b10f 31bc 7aef 943c 3c22 393c aaa8 c73c
000000e0: 03ee c43c fa09 603c e6e4 22bd cf1b 29bd
000000f0: 5528 033d fde5 2cbd 9ad6 013d 8718 9abc
00000100: eea3 023d 5ff1 32bd 5625 93bc 6925 f03c
00000110: 2579 7cbb 542f 4bbd e1c6 623b efba 143d
00000120: c221 ee3b 79fe c3bb 3d77 043d 0ce3 343c
00000130: 12cc b13c ef1d 093d c74b c4bc e711 933c
00000140: e322 af3c a7f1 723c 5ad1 7dbc db7a 74bc
00000150: f940 043d 2551 4ebc 7649 903b 2ba9 0abd
00000160: 9b7e 993c e13c 67bc 3f2d 0dbb 1b6e 1c3d
00000170: 756d dd3c 3084 7cbc 4801 843c 6660 3cbb
00000180: 2e41 32bd 61ff 9c3c 1306 a5bc db32 c5bc
00000190: 1faa 2cbd 6856 1b3d a6b2 9a3c 7143 08bd
000001a0: 0f6f 7c3c 3d19 a23a 3709 0dbd ce21 0a3d
000001b0: 69da d23c 6f52 eb3c 0145 17bc 6444 eb3c
000001c0: 1fd3 ccbb f436 dc3c 56f8 2cbd ada1 8ebb
000001d0: 7e58 17bd a226 dabc f93d e13c 5483 b5bc
000001e0: 36f4 19bd 7e4f 42bd 2580 16bd 0b1c a13b
000001f0: c574 0e3d cc3c 1dbd dac6 c73c b39f e7bc
00000200: a96b 11bd b66c 923c 7470 113d ca72 97bc
00000210: 44ea 40bc d756 35bd 11e0 323c 92ff 6c3c
00000220: 3405 84bc ad62 06bd 0ea6 da3c 8959 e73c
00000230: fcd7 bdbc b212 c23c 41b9 a03c b5df c43c
00000240: 9050 dcbc 82e4 80bc df8d ed3c c905 c13c
00000250: 1f5e 47bd a639 28bd 47cb 083c b846 a4bc
00000260: cfdb c03c b0a3 bc3c 0ab1 6e38 1478 96bc
00000270: 4371 1c3d a2b2 f5bc 8d5c 133c ba36 85ba
00000280: c5c0 21bc 3987 1cbd 581b 1cbd 993a 59bc
00000290: 9c52 b3bc 3b8f 763c fe7d c03c 643e 94bc
000002a0: 4e22 babc e68c e43c a40c e8bc 4422 36bc
000002b0: d46a 41bc 985f 4bbd 07e5 c23c 5f2d e53b
000002c0: 7a09 4abd c766 ffbc f44e 36bc 0d5d 24bd
000002d0: b86c 303c 441f 823c 571c 9cbc f692 d1bc
000002e0: 90f3 ea3c 8081 183d c126 d0bc 14d8 f2ba
000002f0: f8d9 bb3c 7dee 46bd 8a94 21bd 8c28 46bd
00000300: 6863 39bd 8c46 e53c d63f e1bc 6ac1 11bc
00000310: 65bc eb3c 5620 b2bb a69b 4539 2090 48bd
00000320: aef5 41bd 8cf5 acbc b3ca d4bc 1fab 18bd
00000330: 8048 d43c fbb7 7abc a6a2 cebc 9770 1abd
00000340: 9923 e4bc 89c5 1d3b 538a 07bd 4ac4 8fb8
00000350: 05ef c03c 6b78 2dba ba00 bc3c d229 d43c
00000360: 7fed 2dbc 8c48 0a3d 1fde 23bd 293b c8bc
00000370: 57d4 bf3c d1ea 8a3c 4d49 9ebc 38c1 8bbc
00000380: 84b8 9c3c a205 3cbd 04d1 dfbc 1a11 0cbd
00000390: b6ad a13b 362d 103c 1ff0 b33c f132 12bd
000003a0: b80d 8fbc 52db b03c 6904 e2bc c45c 6bbc
000003b0: 0dfc 2f3b 3de0 b03c 7521 0dbc e626 9bbc
000003c0: ac49 1abd a946 a83c 697e d5bc 4bfb 0d3c
000003d0: 64dd 05bb b994 10bd ae0b 21bd 5099 903c
000003e0: b0de 013c 9600 f83c 78b0 083d d072 2abd
000003f0: a1f8 12bc 20c1 bb3c 4dad 96bc 3835 dc3c
-0.022688774 -0.030317029 -0.0143265 -0.03733601 0.00028622174 0.01215691 -0.01707154 -0.021554094
0.031241644 0.01418546 -0.005941696 -0.012340845 -0.020565419 0.029443447 -0.010146893 0.00715772
-0.021453336 -0.039770134 0.017037924 -0.027988264 -0.014617711 0.03380179 -0.02485097 0.020694826
-0.033257265 0.02145064 0.0038536787 0.01498218 -0.04254126 0.029060004 -0.027811732 -0.0458836
0.011968036 -0.041520044 -0.01871656 -0.014097358 -0.048577867 0.028110523 -0.044797763 0.014184173
0.01444415 0.016933328 -0.007627983 -0.02402453 -0.033218242 0.015233634 0.006376323 -0.021123368
-0.009233483 0.024892585 0.022789376 -0.02551403 -0.010806964 0.018180598 0.011299666 0.024372417
0.024039274 0.013674254 -0.039769076 -0.041286286 0.032020885 -0.04221152 0.0316988 -0.018810524
0.031894617 -0.04368722 -0.01796214 0.029314714 -0.0038524356 -0.049605682 0.0034603404 0.036311086
0.007267208 -0.0059812632 0.032340277 0.01104046 0.021703754 0.033475813 -0.023961915 0.017952872
0.02137894 0.014828122 -0.015491808 -0.014921869 0.032288525 -0.012592589 0.0044032885 -0.033852737
0.018737128 -0.014113636 -0.0021541861 0.038190942 0.027029732 -0.015412375 0.016113892 -0.0028743981
-0.04351919 0.019164743 -0.020144498 -0.024072101 -0.042154428 0.0379242 0.018884014 -0.033267442
0.015407338 0.0012367141 -0.034432616 0.033723645 0.025738912 0.02872583 -0.00923276 0.028719135
-0.0062507535 0.026881672 -0.04222902 -0.0043527693 -0.036949627 -0.02662975 0.027495371 -0.022157349
-0.037586413 -0.04743909 -0.036743302 0.004916673 0.03477933 -0.03838806 0.024386812 -0.028274393
-0.035503063 0.017874103 0.035507634 -0.018487353 -0.011774603 -0.04427227 0.010917679 0.01446523
-0.016115762 -0.03280895 0.02669051 0.028240936 -0.023174278 0.023690555 0.019619586 0.024032453
-0.026893884 -0.015733961 0.028998313 0.023562329 -0.048673745 -0.041070603 0.008349246 -0.020053253
0.023542313 0.023027271 5.6908502e-05 -0.018367805 0.038193952 -0.029992405 0.008994234 -0.0010163405
-0.00987262 -0.038214896 -0.038112015 -0.0132586 -0.021889977 0.015048797 0.023497578 -0.018096156
-0.022721436 0.027899217 -0.02832634 -0.011116568 -0.011805255 -0.049651712 0.02379085 0.006993934
-0.049325444 -0.031176938 -0.011127222 -0.040127803 0.010768108 0.01588405 -0.019056482 -0.025582772
0.028680593 0.037232876 -0.025409104 -0.0018527531 0.022931084 -0.048567284 -0.0394483 -0.048378512
-0.045260817 0.027987741 -0.02749626 -0.008896211 0.028776357 -0.0054359837 0.00018845368 -0.048965573
-0.04735344 -0.02111318 -0.02597556 -0.03727257 0.025913477 -0.015302653 -0.025224041 -0.03770503
-0.027849006 0.002407404 -0.0330909 -6.855333e-05 0.023551473 -0.000661737 0.022949565 0.025898848
-0.0106157055 0.033760592 -0.040006753 -0.024442272 0.023416681 0.016957672 -0.019322062 -0.017059907
0.019130953 -0.04590381 -0.027321346 -0.034195997 0.004934038 0.008799842 0.021965085 -0.035693113
-0.017462596 0.021588955 -0.027589994 -0.014365379 0.0026853115 0.0215913 -0.008613934 -0.018939447
-0.037667915 0.020541506 -0.026061254 0.00866587 -0.0020426149 -0.035298083 -0.03931778 0.01765123
0.007926628 0.030273717 0.03337142 -0.0416134 -0.008970411 0.022919238 -0.018393183 0.026880845
