cif_models/large-v2.pt (torch, 6055 bytes, 1 tensors)

weight f4 [1, 1280]
00000000: 1504 ce3c 2080 8ebc 8b6a d63c eded 8e3a
00000010: a89d 34bb 46ae 91bc 46af b03c bb3d cabb
00000020: 8bd2 efbc 23a1 6cbc 34e8 b33c a67c c73c
00000030: 2ba6 3ebc 618f 303c a93d 1fbb ad6b 463b
00000040: b92e db3c 5fe5 573c 8005 863c 5b87 5b3c
00000050: 0620 9a3c 9ae6 7fbc f1e3 b0bc bf97 a0bb
00000060: 3b63 393c 5816 86bc c7f7 953c a2ab fc3b
00000070: ce19 b33c beed dabc 5248 4539 6d1c cbbc
00000080: c70c f23b e96c a23c e9de 95bc f255 06b8
00000090: 06d3 423c b3c8 bbbc e0ed aebc 944e 203c
000000a0: d1e4 3bbc 974f 88bc a798 c13c 922d 69bc
000000b0: 64ad 663c d46a bebc 6a91 14bc f355 cb3c
000000c0: ae98 1abc 9c79 85bc 34c5 6e3c d8be 5a3c
000000d0: a07e 62bc dd3d 7abb 1681 febb a451 dbbb
000000e0: aea7 cd3c 4505 bcbb 8009 12bc 7724 f0bc
000000f0: aab4 95bc a24b cdbc 0da0 02bc 73ad 19bb
00000100: 467c 813c 6dac 883c debf aa3c ab8a 973b
00000110: d2db d1bb 4e4f 9b3a d0f5 95bb 49e3 a7bc
00000120: 1bab 513c 2d2b d2bc 9413 963a 276c 3d3c
00000130: ac57 e13b 8073 cbbc dd71 f0bc 62aa ff3b
00000140: b4fe d3bc 80de 9f3c 796e 6bbc 3f93 c0bc
00000150: e808 6ebc 2dc7 7b3c 4136 80bc 3b98 293b
00000160: 7a43 ad3c 2eaf ccbb cba9 48bb bc94 373c
00000170: 6aea eabb 6878 b73a 1277 0abc da34 883c
00000180: e4e7 a9bc 6cd7 913c 1c11 523c f9c6 7f3b
00000190: 7314 1fbc eb71 8fbc f742 b1bc e28f d7bc
000001a0: 9ce5 89ba d8e1 a03b 348f 823c b947 abbc
000001b0: 8ba9 003b 0897 f23b c0fd 693c bd1b d7bc
000001c0: 1038 3e3b 3f30 733c 6ffb 6cbc b533 fabb
000001d0: 110d ab3a 9d0a a53c 5bd0 903c de19 a33b
000001e0: bcee 473c 36ce b9bc d4fa 093c 9a40 b23a
000001f0: 8ac8 173c fa97 cabb 1279 d7bc 23eb a1bc
00000200: dd50 be3c 1034 b53b e8d8 42bc 2414 29ba
00000210: ee84 cf3c 39b3 e1bb 62d4 663b 507f 503c
00000220: fa2e bdbc 787f 393b 60c2 ecbc 5563 333c
00000230: 7649 793b 3581 a73b 8e84 f4bc 3db3 b33c
00000240: 6acc 74bc 3bf3 623c 177f 9b3c 38e4 f2bb
00000250: b4bf f2bc 256e bbbc b5f5 033c 249d 8d3c
00000260: 7b3f 8abc 614a f3bb dbae 463c 9d8c 76bc
00000270: 4c4f c73c 5d3e 323c 116d 8a3c 3001 7d3c
00000280: 7282 333c d0cb 70bb 8f98 b4bb 264c 143c
00000290: 50ac 463b 57d6 f7bb 5591 853c 4309 953c
000002a0: 10f0 8bbc 8beb 25bc 2ec1 bcbc 632e 733c
000002b0: 8af6 50bc 3115 2f3c 4fbe d2bc 7bb2 a3bc
000002c0: 6bf4 b93c d7d0 193c 7a5b 82bc 7336 df3b
000002d0: c09a d23b b0e1 b73c e926 28bc 1ba7 a73c
000002e0: fe7f 843c 60dc fbbb 5cde d23c 4a24 c7bc
000002f0: 2c14 96bb 0823 e9bc 0ee5 03bc a963 63bc
00000300: e7c6 6bbc 21e3 c3bb ee42 a8bc 5004 b5bc
00000310: 6f2b 843c 3d95 b5bc 02f5 c4bc 2c2a c1bb
00000320: 5f6e 8e3b 94aa 05bc 3b98 d2bc fa50 283c
00000330: e5e2 883b 6bcd a0bc 748b 02ba f655 77bc
00000340: 791f 1bbc 03df f7bc b148 f7bb a844 833c
00000350: 02a3 c8bc 7fa4 043c a156 b93b d8bc 6e3c
00000360: d4d2 84bb cff4 9cbc 83f2 fcbb 1af9 14bc
00000370: 9b5f 7fbc ad87 3fbc d8a2 a1bb 4a37 55bb
00000380: 5b2f f0bb 2f33 983c 6e8e 283b 907e 283b
00000390: 55ed a7bc 7e1c f43b e35d 99bb 1bc0 2fbc
000003a0: f9a9 923c 94e8 2dbc dbf6 14bc bad6 8f3c
000003b0: 2b9f 58bb cf9b dcbc 2556 6c3b 748b 99bc
000003c0: 980b b73c c48b 583c c5c6 c3bc 9999 1a3c
000003d0: 8dc3 1abc 590f 25ba cd11 cc3a ca79 a43c
000003e0: d4c0 f0bc 62f6 963c e6a1 d039 5881 efbc
000003f0: 9991 a03b c64b 973c d8fd 393b d575 c3bb
0.02514843 -0.01739508 0.02617385 0.0010904648 -0.002755979 -0.017783295 0.021567952 -0.0061719096
-0.0292752 -0.014442715 0.021961309 0.02435143 -0.011636297 0.010776372 -0.0024298227 0.0030276582
0.026755678 0.013177245 0.016360044 0.0133989705 0.018814098 -0.015618945 -0.021593066 -0.004900902
0.011315162 -0.016368076 0.018306626 0.00771089 0.02186289 -0.026724692 0.00018814325 -0.024793828
0.007386777 0.019827323 -0.018294768 -3.2028132e-05 0.011891132 -0.02292285 -0.021353662 0.0097843595
-0.011468128 -0.016639514 0.02363236 -0.014232056 0.0140794255 -0.023244299 -0.009067873 0.024821257
-0.009435816 -0.01629334 0.014573384 0.013351165 -0.013824135 -0.0038183846 -0.007766853 -0.006693082
0.02510437 -0.005737933 -0.008913398 -0.029314263 -0.018274624 -0.025060479 -0.007972729 -0.002344933
0.015806329 0.016683782 0.020843443 0.004624685 -0.0064043785 0.0011849196 -0.0045764223 -0.02049412
0.012797142 -0.025655353 0.0011449927 0.01156143 0.0068769064 -0.024835348 -0.02935117 0.0078022936
-0.025878288 0.019515276 -0.0143696 -0.023507712 -0.014528491 0.015367311 -0.01565087 0.002587809
0.02115034 -0.006246469 -0.0030618783 0.011204895 -0.0071690576 0.0013997676 -0.00845124 0.016626764
-0.020740457 0.017802916 0.012821462 0.003902851 -0.009709465 -0.017510375 -0.021638377 -0.026313726
-0.00105207 0.004909735 0.015937425 -0.020908223 0.0019632305 0.0074032582 0.01428169 -0.026258344
0.0029025115 0.014843046 -0.014464243 -0.0076355585 0.0013050159 0.020146662 0.017677477 0.004977449
0.012202915 -0.022681337 0.0084216185 0.0013599575 0.009264121 -0.006182668 -0.026302848 -0.019765442
0.023231918 0.005529888 -0.011892535 -0.00064498396 0.02533194 -0.00688782 0.0035221805 0.012725666
-0.02309369 0.0028304737 -0.028901279 0.010948976 0.003803817 0.005111838 -0.029848363 0.021936053
-0.014941314 0.013851936 0.0189815 -0.0074124597 -0.029632427 -0.02287967 0.008054187 0.017286845
-0.016875973 -0.007424638 0.01212665 -0.015048173 0.024329804 0.010879126 0.01689771 0.015442178
0.010956394 -0.0036742575 -0.0055113505 0.009051358 0.0030315109 -0.007563393 0.016304651 0.018192893
-0.017082244 -0.010126959 -0.023041334 0.014842602 -0.012754092 0.010686205 -0.025725512 -0.019982567
0.022699555 0.00938817 -0.01591276 0.006811911 0.006427139 0.022446483 -0.010263183 0.020465424
0.016174313 -0.007686183 0.025740795 -0.024309296 -0.0045800414 -0.028459087 -0.008050216 -0.013878741
-0.014390684 -0.0059780036 -0.020539727 -0.022096783 0.016133992 -0.022165889 -0.02404261 -0.00589492
0.0043466534 -0.008158345 -0.025707355 0.010273213 0.0041774386 -0.0196292 -0.00049798866 -0.015096178
-0.009467953 -0.030257707 -0.0075465073 0.016023949 -0.02449179 0.00809586 0.005656079 0.014571391
-0.004053453 -0.019159703 -0.0077193393 -0.009092594 -0.015586759 -0.0116900625 -0.0049327426 -0.0032534176
-0.007329864 0.018579094 0.002571966 0.0025710203 -0.02049891 0.0074496856 -0.0046803816 -0.010726954
0.017903315 -0.010614533 -0.009092058 0.017558444 -0.0033053856 -0.026929764 0.0036062088 -0.018743254
0.022344396 0.0132169165 -0.023898492 0.009436035 -0.009446037 -0.00062965375 0.001556927 0.020077605
-0.029388823 0.018428031 0.00039793475 -0.02923648 0.004900169 0.018468749 0.0028380062 -0.0059649744
