cif_models/medium.pt (torch, 5031 bytes, 1 tensors)

weight f4 [1, 1024]
00000000: 1631 5e3c e889 cc3c 33bd 45bc c6ba fdbc
00000010: c919 c53c c1d7 903c bdd7 e6bc 8982 da37
00000020: fd66 2a3c f5e6 923c ddf9 15bd 840c 8f3c
00000030: 84c3 b73c eb41 87bb 31f2 8cbc 2ae6 21bc
00000040: bfad a9bc 4228 bd3c a3d3 b03c 5b8e 52bc
00000050: 56a6 af3c 2e4f b4bc 5cba a5bc 1638 9fbb
00000060: 06ab 993c efad 8e3b f5b4 92bc 0c2d dcbc
00000070: 2fb1 dbbc 2989 953c 1d6c 12bd b894 6ebc
00000080: 8bbf 0cbc 638b 383b 05eb a6bc d7a2 52bc
00000090: 5de5 dfb9 963b 86bc 6a2e f1bc 83ad f5bc
000000a0: d39b b0bc d9e6 693c 7ee7 08bd 1ebc eebc
000000b0: 0249 883c 67da 8c3c f306 07bd 1fa3 b6bc
000000c0: 00c2 b9bc 0738 fcb9 7cc3 e7bb 5276 813c
000000d0: 691d cf3c b7f7 853b 0441 c93b bb74 fdbc
000000e0: 3a60 a0ba 5402 a13b eef3 d6bc 56cd 8d3c
000000f0: 1cb2 363c 55ce 6d3b e99d 6c3c cf50 91bc
00000100: 2fd3 d2bc da82 04bc 67b6 ba3b 344f 4cbc
00000110: e385 a23c fcd9 55bc 7593 fd3b 5adc a03c
00000120: 48e8 5bbb 91fa b83b 23f3 6f3c 46d8 9e3c
00000130: 3a45 473b 8c56 8d3c d7bc 07bd 9e9d bfbc
00000140: fcdd 60bc 7738 0cbc a008 fbbc b918 0d3c
00000150: 2731 0ebd 2ca8 193c 7b17 173c 589a babc
00000160: 6171 86bb 3bf4 a43c 08e2 c13c d342 92bb
00000170: 8340 b33c af27 d8bb 331f 2a3c 35af 733c
00000180: 3c35 f5bc 2647 5c3b 77f4 a93c 13d6 45bc
00000190: 8090 323c 8e6e eb3b d22c b2b9 4b93 8fbc
000001a0: fb0f 00bd 370f 24bb 0d1c 0abc 012d 803c
000001b0: 4bed 77bc 64b1 8a3b b73b 66bc 2225 c03c
000001c0: 9299 1ebc 5e92 933c c1d8 c9bb b4c3 e33c
000001d0: d30b 9c3a 82ce c4bc d935 0d3c f83b aabc
000001e0: 2910 e2bc 58e6 f6bc 0d39 bb3c 666c ac3c
000001f0: ab68 03bd cf3c 5dbc 33bb 84bb 1c5e 373c
00000200: 307d c3bb 1db4 ad3c d36a 0abd 3422 503c
00000210: e7f4 0fbc 01c5 8ebc 4b0e 853c 1d6a 00bb
00000220: 0b4e 8c3c cdcd 393c 78f4 9cbc fe0c 773c
00000230: ebc5 02bc 1fa1 eabc c139 e8bc f898 23bc
00000240: 61e6 14bd bf1d 6c3c 18be 813c dce8 8c3a
00000250: 4ab7 c3bc fcb9 0cbc db3f 863c 5482 9fbb
00000260: fbda 8bbc 85c5 dcbc 0253 14bd e039 f6bb
00000270: 7071 9e3c 6a99 f1bc f139 af3c 7c3c e1bc
00000280: e9f1 743b c469 eebc 1759 b7bc 652a 8b3c
00000290: c79f c9bb f4c0 a23c 0f93 403b 6a00 57bb
000002a0: d637 e9bc 64f7 16bc 26fa aebb 3cea 5f3c
000002b0: 22c5 0bbd 435d 8abc 5fa5 08bd 4f9a 0d39
000002c0: a9b3 c93c 8e79 7bbc f829 7bbc 657f b53c
000002d0: e1a0 e33b 1d7a a5bc eb68 703b 4443 18bd
000002e0: f3fe ccbc d01a 9cbc bb66 c6bc 9c36 7a3c
000002f0: 2c92 a6bb 2df4 9bbc 722f c43c 45a9 71bc
00000300: e0ef bcbb f04b b439 8745 a03a 5c1c 5b3a
00000310: d417 633b 3726 16bd b325 ffba 2f17 223b
00000320: e0e2 f9bc a1d8 abbc 9bb0 90bc 67d5 b13c
00000330: 162e 7bbc 57e4 cfba a09b b03a 9ef1 8f3c
00000340: f23b 0c3c 7b58 6c3b 113e 2a3a 910a debc
00000350: 3d59 c83c 1189 7ebc 5b1f 873c 73e1 fcbc
00000360: 78f5 ac3b b912 85bc 46ac 4abb 06fa be3c
00000370: 1985 d63b febd 503c 5bef 17bd dc69 8d3a
00000380: 1a1b 9a3c b45a cfbc 418a 0ebd 3609 16bd
00000390: 5f17 85bc 79e3 0cbd 4784 6f3c 1182 e1bc
000003a0: 06e2 17bd cf07 8f3b 0c30 31bc 444a febc
000003b0: 62a6 48bc ae7d a53b 292c 0dba 237f 803b
000003c0: 2e15 353c 57a7 e2bc 6ef4 8fbc 2b13 b3bc
000003d0: 5ad3 b3bc d7d2 833c 3de5 0abd 9c29 2a3b
000003e0: ffe2 8ebb 0911 09bd 42f2 883c cd5a 4b3b
000003f0: 783a f6bc 649f 00bd 67a8 033c e8a4 073b
0.013561508 0.024968103 -0.012069034 -0.03097285 0.024060147 0.017681004 -0.028179044 2.604841e-05
0.010400531 0.017932395 -0.03661524 0.017462023 0.022432096 -0.004127731 -0.01720533 -0.009881536
-0.020712731 0.023090485 0.021585291 -0.012851323 0.02144162 -0.022010412 -0.020230465 -0.004858981
0.018758308 0.0043542306 -0.017908553 -0.026876949 -0.026817886 0.01825388 -0.035747636 -0.0145618245
-0.008590589 0.0028159253 -0.020375738 -0.012856207 -0.00042704763 -0.016385835 -0.029441077 -0.029989963
-0.021558678 0.01427623 -0.033423893 -0.029142436 0.016636375 0.017193986 -0.03296561 -0.02229458
-0.022675514 -0.0004810693 -0.007072864 0.01580349 0.025282579 0.004088368 0.0061417837 -0.03093945
-0.0012235709 0.0049136076 -0.026239362 0.017309826 0.011150863 0.0036286314 0.014441946 -0.017738728
-0.025735466 -0.008087838 0.0056980136 -0.012470055 0.019839233 -0.01305246 0.0077385255 0.019636322
-0.0033555198 0.005645104 0.014645371 0.019390237 0.0030406252 0.017253183 -0.033139076 -0.023390587
-0.0137248 -0.008558384 -0.030643761 0.008611851 -0.034714844 0.009378474 0.009221907 -0.022778675
-0.0041028713 0.02013599 0.02366735 -0.0044635325 0.021881348 -0.0065965275 0.010383415 0.014873316
-0.02993261 0.0033611744 0.020746453 -0.012074965 0.010898709 0.00718481 -0.000339842 -0.01752629
-0.03126524 -0.0025033483 -0.008429539 0.01564646 -0.015132259 0.0042325724 -0.014052323 0.023455206
-0.009680169 0.01801413 -0.0061598723 0.02780328 0.0011905379 -0.024024252 0.008618795 -0.020780548
-0.027595596 -0.030139133 0.022854352 0.021047782 -0.03208224 -0.013503267 -0.004050636 0.011191871
-0.0059658512 0.021204049 -0.03379328 0.012703467 -0.008786417 -0.017427923 0.016242167 -0.0019594498
0.017127058 0.011340571 -0.01915954 0.015078781 -0.007981758 -0.028641282 -0.028347852 -0.009985201
-0.03635252 0.014411389 0.015837714 0.001075055 -0.02389111 -0.008589264 0.01638787 -0.0048678312
-0.017072191 -0.026949653 -0.036211975 -0.0075142235 0.0193412 -0.029492099 0.021389933 -0.027494662
0.0037375635 -0.029103167 -0.022381349 0.016987989 -0.00615308 0.019867398 0.0029384529 -0.0032806643
-0.028469007 -0.009214256 -0.0053398786 0.013666686 -0.034123547 -0.016890174 -0.033360835 0.00013504292
0.024621801 -0.015348805 -0.01532983 0.022155473 0.0069466685 -0.02019983 0.003668363 -0.037173524
-0.025023913 -0.019055754 -0.024218908 0.015271809 -0.005083343 -0.01903733 0.023948405 -0.01474983
-0.0057659 0.00034388853 0.0012227752 0.0008358413 0.0034651654 -0.03665754 -0.0019466191 0.0024733057
-0.03050369 -0.02097732 -0.017662337 0.021708203 -0.015330812 -0.0015860897 0.0013474114 0.017571267
0.008559214 0.003606348 0.0006494234 -0.027104648 0.024456615 -0.015535609 0.016494444 -0.030869221
0.0052782856 -0.01624428 -0.0030925437 0.02331258 0.006546628 0.01274061 -0.0370935 0.0010788995
0.018811751 -0.025311805 -0.034799818 -0.036629878 -0.016246496 -0.034396622 0.01461894 -0.02752784
-0.037080787 0.0043649445 -0.010814678 -0.031041272 -0.0122467 0.0050503826 -0.00053853035 0.003921406
0.011052413 -0.027667684 -0.017572608 -0.021859726 -0.021951366 0.016091747 -0.033910025 0.0025964743
-0.004360556 -0.03346351 0.01671708 0.0031029463 -0.030057177 -0.031402007 0.008035756 0.0020697657
