cif_models/small.pt (torch, 4007 bytes, 1 tensors)

weight f4 [1, 768]
00000000: 6df7 03ba 0146 f6bc 88d1 c9ba c6e1 2dbc
00000010: e53e 343c f222 8cbc 254e 0abd 6b0a 003d
00000020: 518b 5dbc a560 43bc f9ed d2bb fa79 70bc
00000030: c55b 0bbd d7a8 f43b 8598 edbc 6a68 58bc
00000040: bf07 82bc 7558 05bd a38d 733c cb05 e13c
00000050: 12a5 d2bc f926 f63c a372 f23c f5a1 bfbc
00000060: 53b7 2abc 42a4 913b 0b5e dabb 0b2a d6bc
00000070: b0d7 a7bc 873f b63b b067 fdbb e203 973c
00000080: bc2f d6bc fc4a 02bd 7c51 173c 091d 22bc
00000090: cecf b1bc 570d 273c 8932 cfbc 20c7 c6bc
000000a0: 2e7e fcbc b4bb 443c e2b8 d8bc 3625 09bd
000000b0: 0ef7 babc e8d5 4a3a f6d0 aebb 3d4f f6bb
000000c0: 912b 1bbd 9e92 03bb 5aeb adbc 3554 d93b
000000d0: 953d efbb eaee 003d 3b8e d33c 9f9e a7bc
000000e0: 4129 1ebd ee6a e53c a509 863b 1534 a4bc
000000f0: f05c fa3b d656 c5bb 15f7 b73c 8809 e2bb
00000100: 07d5 48bb d48f 1cbd 161b f03c 0100 1cbd
00000110: d97b 8b3c 2bac cf3a b4e4 af3c f7ae a4bc
00000120: 7bbe aebc d4d6 c13c 8df7 0fbd 2d49 073c
00000130: ab08 cc3c ca9f c2bb 4cf0 18bd bae3 9d3c
00000140: 933f 8f3c 71ed ce3b 2d47 2f3c efa5 ecbc
00000150: d774 b3bc 4a87 1ebb 3ad8 be3c d452 ddbc
00000160: cfd3 61bc 6508 bbbc 703c 9e3c b43a f6bc
00000170: 8120 df3c 194b a5bc d0ff fb3c 6297 283c
00000180: d0ce 12bd 7702 c23b 0b61 26bb 3520 d93c
00000190: c7fb ca3c bf2f 343c 4624 1abd 2a16 ffbc
000001a0: bef1 a63c 19c3 bf3c cea0 4ebc a153 cabb
000001b0: 4c1e a5bb 7a48 85bc daf3 7cbc 1879 1ebd
000001c0: 5f1c b1bc 082b df3b 4064 15bc 1e4a 3f39
000001d0: c049 e83c 854f ebbc 1da1 80bb 3768 01bd
000001e0: 3f8a cb3c bad2 513b 4d43 773c 3f91 02bd
000001f0: 3c01 0abd 3fcc 8ebb 877a 78bc e82b 1cbd
00000200: ef6c 0dbd ec3f a33c e9fd b3bc 1e57 01ba
00000210: 0c7b 7cbb 2077 023d 5114 c53c 7e0d 88bc
00000220: da17 20bd b7cf e13c 4899 37bc 1a26 a73c
00000230: d503 5c3c 7d89 1fbd 1478 593b df12 2fbc
00000240: bf16 15bd d78b f03c 80f8 003d e292 033d
00000250: c5c6 b63b 4f9c e5bc dd50 ed3c f6df 08bc
00000260: 3c6f ba3c 8dc1 60bc 989f a0bc 208e 063c
00000270: dfe3 ab3b 1ca9 b1bc 52b1 abb9 258a a03c
00000280: e507 d5bc 5fe3 9dbc 81de fe3c 54fe 983c
00000290: c260 d53b 7711 90bb 5510 d63c 3f09 62bc
000002a0: 3af7 97bb 4ad6 1fbd abac 0abd 3b85 503b
000002b0: 55ca d43b 0bee 20bd ae00 e3bc 55b1 01bd
000002c0: dccc f7bc 9438 51bc c49c 01bd b2f7 b43b
000002d0: 2960 6a3a 7824 87bc 6cf9 b9bc 6489 aa3b
000002e0: 6272 a0bb fdf9 1fbd 44e2 edbc 5398 9dbc
000002f0: 6f59 54bc b052 eb3c da69 d0bc a98a 03bb
00000300: eff8 03bc 43f5 3e3c 9ea6 88bc 8506 cfbc
00000310: 8499 243c bc6c b1ba 9ccd e73b 74d6 353c
00000320: 5ad1 013d 1ef1 083c f23f b33c 8a57 c53c
00000330: 2e25 13bd e7d5 9ebc 07a6 003c 634a c0bc
00000340: 7b2e 043d d5bd f33c 0202 8bbc efb0 b23c
00000350: 8f24 bf3c 2a2b 65bc a4d9 98bb 2305 673c
00000360: caf2 80bc 6b7b adbb e004 a93c 38e6 70bc
00000370: a48c 04bd cc6f c53c 5bf3 d13c e58a 04bd
00000380: 9087 38bc bb41 23bb 38fe c33c 76c9 c8bc
00000390: 8e8f f4bc cbfe ac3c 2322 fc3b 818a 4abb
000003a0: 1933 18bd e097 21bc 7662 033d 4018 cbbc
000003b0: b5ce e9bb 84b5 bf3c 0608 90b9 ddf3 cbbb
000003c0: 82bb f63c 1640 32bc 7475 4fbc 7974 e0bb
000003d0: 4026 9d3c 2c97 023c 7143 2b3c c2a2 f03c
000003e0: 3a89 53bc 24d1 983b 5913 bd3b 44f6 f33c
000003f0: 53e7 cdbc 16ef 18bd dd2c c1bc 8ecf 42bc
-0.0005034123 -0.030062677 -0.0015397528 -0.010612911 0.011001323 -0.017106507 -0.03376593 0.031259935
-0.013521985 -0.011924897 -0.00643706 -0.014677519 -0.034023065 0.0074664163 -0.029003391 -0.013208488
-0.015872834 -0.032555062 0.014865312 0.027468583 -0.025713477 0.03004788 0.029595679 -0.023392657
-0.010419684 0.00444463 -0.006664043 -0.026143095 -0.02048859 0.0055617723 -0.007733308 0.018434469
-0.026145808 -0.031809792 0.009235736 -0.009894618 -0.021705534 0.010196052 -0.025292652 -0.024264872
-0.030821886 0.012007643 -0.026455346 -0.033482753 -0.022822883 0.0007737563 -0.0053349687 -0.00751677
-0.037883345 -0.0020076404 -0.021230388 0.0066323527 -0.0073010423 0.031477846 0.025824657 -0.020461379
-0.03861356 0.02800509 0.004090505 -0.020044366 0.0076404735 -0.0060223145 0.022456685 -0.006898109
-0.0030644552 -0.038223103 0.02930979 -0.03808594 0.017026829 0.0015844157 0.021471359 -0.020102961
-0.021331063 0.023662008 -0.035148192 0.008257193 0.024906477 -0.0059394585 -0.03733854 0.019273628
0.01748637 0.0063149263 0.010698122 -0.028887717 -0.0219063 -0.0024189525 0.023296464 -0.027017035
-0.013783409 -0.022831151 0.019315928 -0.030057289 0.027237179 -0.02017741 0.03076163 0.010289999
-0.035841763 0.005920704 -0.0025387432 0.026504615 0.02477826 0.010997712 -0.03763225 -0.031138498
0.020378944 0.02340846 -0.012611581 -0.00617452 -0.005039012 -0.016269911 -0.015438998 -0.038689703
-0.021619974 0.0068105496 -0.00911814 0.0001824279 0.02835548 -0.028724441 -0.003925456 -0.031593528
0.024846194 0.0032016472 0.015091729 -0.0318768 -0.033692583 -0.004357844 -0.015165932 -0.03812781
-0.034527715 0.019927941 -0.02197166 -0.0004933941 -0.003852549 0.031851888 0.02405754 -0.016607996
-0.039085247 0.027564866 -0.011205979 0.02040391 0.013428648 -0.03894948 0.0033183144 -0.010685652
-0.036398645 0.029363556 0.031486988 0.0321225 0.0055778944 -0.028028635 0.028969223 -0.008354178
0.022758119 -0.013718021 -0.01960735 0.008212596 0.00524567 -0.021687083 -0.00032747776 0.019597122
-0.026004741 -0.019273458 0.031111958 0.01867596 0.0065117786 -0.004396613 0.026130835 -0.01379615
-0.004637626 -0.03902272 -0.033856075 0.0031817693 0.0064938464 -0.039289515 -0.027710285 -0.031663258
-0.030249052 -0.012769837 -0.031643644 0.0055226916 0.00089407206 -0.016496882 -0.022701941 0.0052043665
-0.004896448 -0.039056767 -0.029038556 -0.019237673 -0.012960776 0.028725952 -0.025441099 -0.0020071662
-0.008054956 0.011655155 -0.016681012 -0.025271663 0.010046367 -0.0013536434 0.007074071 0.011098493
0.031693794 0.008358268 0.021881077 0.024089593 -0.03592413 -0.019389106 0.007852084 -0.02347297
0.03227089 0.029753605 -0.01696873 0.021812884 0.023332862 -0.013987342 -0.0046646167 0.014100346
-0.01574077 -0.0052942536 0.020632207 -0.014703326 -0.032360688 0.02410116 0.025628736 -0.032359023
-0.011262789 -0.0024911005 0.023924932 -0.024510127 -0.029853608 0.021117589 0.007694499 -0.0030905309
-0.037158106 -0.00986287 0.03207632 -0.024791837 -0.007135237 0.023401983 -0.00027471798 -0.006224139
0.030118708 -0.010879537 -0.01266228 -0.006849822 0.019183278 0.0079706125 0.010453091 0.029374484
-0.012911135 0.0046636034 0.0057701287 0.029780515 -0.025134718 -0.037337385 -0.023580963 -0.011890305
